Assignment4/scripts/LSTM_models/LSTM_WOS11967_e50_lr0.005_bs64_model.pth (torch, 481182 bytes, 18 tensors)

W_xi.weight f4 [128, 100]
0.4283221 -0.12459784 0.20432319 -0.068242595 1.2165897 -0.32081234 0.29824242 0.24495707
0.11179202 -0.86194557 -0.6464907 -0.80961746 0.28733948 -0.29547548 0.13714936 -0.006068527
0.18538691 0.7795217 0.14843293 0.18191971 -0.16168953 0.4988052 0.27841756 0.1854473
-0.38147825 -0.47201818 -0.37257177 -0.16746342 0.13672425 0.045760643 0.83454853 -0.3064982
-0.078386694 0.32103512 -0.4288852 -0.022043526 0.36828625 0.22135954 -0.62174475 -0.13986467
-0.68509984 0.36287954 0.6373197 1.1198809 -0.13918756 0.51281095 -0.1298193 -0.25337315
-0.62999696 0.08301906 0.35048428 0.030451193 -0.13107182 0.025304792 0.39496517 -0.5868285
0.089430474 0.18879557 -0.25563502 -0.3152219 0.27205324 -0.5233282 -0.8685445 -0.64685345
-0.60879374 0.6404734 0.23500541 0.40280217 -0.36216733 0.5205108 0.44914156 -0.050959893
0.77734166 -0.95048034 -0.08005621 0.02432973 -0.39105895 -0.6199143 0.9567774 0.31047988
0.7485315 0.37988874 -0.8957243 0.21424228 0.15423663 -0.367924 -0.30289677 0.6571273
0.099287674 0.25635234 0.509337 0.67208517 0.49800214 0.3084167 0.51443964 -0.03410743
0.2891475 -0.44413182 -0.4027704 -0.45434347 -0.37059522 0.29737887 -0.6268431 -0.51304567
0.026721932 0.33450037 -0.18243916 0.07517968 0.27423587 1.1990079 0.15773287 -0.27481052
-0.45647135 -0.36694217 0.14889088 0.11209965 -0.3013726 -1.2268186 0.12466357 -0.043858897
-0.6800618 0.4480337 -0.1037112 0.13374741 -0.024988502 0.520193 0.09360265 0.22682455
1.2375493 -1.1011571 -0.8817503 -0.061941758 -0.11017054 -0.15607636 0.8003664 -0.60375553
0.6112636 0.041146576 -0.42978764 0.6059239 0.072962545 0.15883072 -0.048013397 0.6157051
-0.78525376 -0.26214606 -0.28328866 -0.050314646 0.19839482 0.124963105 0.5979528 0.25657108
-0.27259165 -0.467066 0.3220077 0.13597316 0.44876224 0.35570043 -0.16108643 0.047125418
-0.02534175 -0.63403624 0.11550207 -0.09417609 -0.23274463 0.28308162 -0.5787013 0.506128
0.42347917 -0.32899606 -0.2088072 -0.6785648 0.10424964 0.88414925 -0.6882974 0.3674812
0.38885537 -0.031899296 0.5313906 0.2902777 0.3565079 -0.31615722 0.09370234 -0.29077777
-0.15727724 0.09740567 -0.5190531 0.19241321 -0.14451455 -0.31743318 0.52890325 1.3584976
0.119154885 0.36373565 0.6592726 -0.26669928 0.7752181 0.950015 0.03428415 -0.15449943
0.13164227 0.085955344 0.33431634 0.64379025 0.16784759 0.4209595 -0.587373 -1.1239414
-0.5286517 -0.5081064 -0.24014086 -0.1530211 0.05674188 -0.40267858 0.031168632 0.95366466
-0.011597746 -0.3676797 -0.64775026 0.19813225 -0.23118751 0.036066722 -0.03376895 -0.3847584
0.28998524 -0.776535 0.75530493 -0.3177257 0.91860074 -0.10778836 -0.79673856 -0.15729114
-0.70458484 0.0912026 -0.038747963 -0.39563918 -0.44535497 0.46359077 -0.24776088 0.4912037
0.35621154 -0.40503794 0.25653386 0.52122885 0.3216255 -0.39837795 0.1767494 -0.80049646
-0.13702607 -1.2780852 0.104300305 0.40493673 0.76026905 0.1782308 0.62475276 -0.3418773
00000000: 094d db3e 272d ffbd 193a 513e c6c2 8bbd
00000010: 36b9 9b3f 8441 a4be 3bb3 983e 07d6 7a3e
00000020: 37f3 e43d 77a8 5cbf 6a80 25bf 1743 4fbf
00000030: 291e 933e 9048 97be e270 0c3e 7eda c6bb
00000040: 11d6 3d3e bc8e 473f cdfe 173e 2949 3a3e
00000050: f191 25be 6563 ff3e bf8c 8e3e e6e5 3d3e
00000060: 1e51 c3be 5eac f1be bac1 bebe 887b 2bbe
00000070: 7101 0c3e 836f 3b3d f9a4 553f 55ed 9cbe
00000080: 3489 a0bd b75e a43e d796 dbbe a094 b4bc
00000090: 0490 bc3e 13ac 623e aa2a 1fbf af38 0fbe
000000a0: b462 2fbf 59cb b93e 6227 233f 4258 8f3f
000000b0: 2f87 0ebe 9447 033f 5aef 04be 20ba 81be
000000c0: 7b47 21bf e605 aa3d ad72 b33e c874 f93c
000000d0: b137 06be ff4b cf3c e038 ca3e 643a 16bf
000000e0: 5327 b73d a053 413e 98e2 82be c464 a1be
000000f0: 904a 8b3e d6f8 05bf ef58 5ebf 3098 25bf
00000100: e8d9 1bbf 11f6 233f 42a5 703e 163c ce3e
00000110: ff6d b9be 3240 053f e2f5 e53e 52bb 50bd
00000120: ddff 463f ae52 73bf 83f4 a3bd 244f c73c
00000130: e138 c8be b4b2 1ebf 5def 743f 38f7 9e3e
00000140: c39f 3f3f c780 c23e 304e 65bf 5462 5b3e
00000150: 35f0 1d3e 8960 bcbe 4915 9bbe 7f39 283f
00000160: 5657 cb3d 9d40 833e e963 023f c60d 2c3f
00000170: 23fa fe3e cbe8 9d3e 51b2 033f 3cb4 0bbd
00000180: 240b 943e 3f65 e3be ec37 cebe b59f e8be
00000190: a8be bdbe 0b42 983e ca78 20bf f656 03bf
000001a0: f4e7 da3c a243 ab3e 55d1 3abe cef7 993d
000001b0: a568 8c3e 1779 993f ba84 213e f7b3 8cbe
000001c0: 9db6 e9be d8df bbbe da76 183e 8094 e53d
000001d0: 824d 9abe 6408 9dbf 9d4f ff3d 63a5 33bd
000001e0: 8818 2ebf ac64 e53e 8a66 d4bd 15f5 083e
000001f0: b0b4 ccbc 5e2b 053f bfb2 bf3d b244 683e
00000200: 0468 9e3f b7f2 8cbf 63ba 61bf a4b6 7dbd
00000210: 18a1 e1bd 7bd2 1fbe d0e4 4c3f b98f 1abf
00000220: c57b 1c3f 5089 283d 200d dcbe d41d 1b3f
00000230: 636d 953d 85a4 223e b2a9 44bd d99e 1d3f
00000240: 6406 49bf 0238 86be 360b 91be bb16 4ebd
00000250: 0328 4b3e a8ec ff3d 6f13 193f 495d 833e
00000260: 2291 8bbe 4623 efbe 31de a43e 8c3c 0b3e
00000270: 2ac4 e53e 5e1e b63e d7f3 24be 9506 413d
00000280: 8099 cfbc 3350 22bf 598c ec3d 65df c0bd
00000290: 9c54 6ebe 13f0 903e c525 14bf 9b91 013f
000002a0: 43d2 d83e 2c72 a8be 8ed1 55be 6cb6 2dbf
000002b0: d680 d53d 9b57 623f 4234 30bf 7f26 bc3e
000002c0: 0d18 c73e d6a8 02bd 3709 083f 479f 943e
000002d0: 3488 b63e 5cdf a1be 03e7 bf3d d3e0 94be
000002e0: 490d 21be a07c c73d aae0 04bf f807 453e
000002f0: 9ffb 13be 9a86 a2be 3466 073f 40e3 ad3f
00000300: 7a07 f43d 8f3b ba3e 17c6 283f cf8c 88be
00000310: b274 463f 2f34 733f 896d 0c3d 1935 1ebe
00000320: 3bcd 063e 5b09 b03d 832b ab3e 70cf 243f
00000330: 3de0 2b3e 0188 d73e 145e 16bf 50dd 8fbf
00000340: b855 07bf 4313 02bf 7ce7 75be 90b1 1cbe
00000350: 2c6a 683d e32b cebe 5c55 ff3c 5e23 743f
00000360: 7904 3ebc 8340 bcbe f6d2 25bf 2ee3 4a3e
00000370: 6bbc 6cbe b3ba 133d 4f51 0abd 0eff c4be
00000380: f278 943e ffca 46bf aa5b 413f f1ac a2be
00000390: 6b29 6b3f 25c0 dcbd 0ff7 4bbf ee10 21be
000003a0: ac5f 34bf 6ec8 ba3d 2fb6 1ebd 3891 cabe
000003b0: 9105 e4be c55b ed3e 07b5 7dbe 0d7f fb3e
000003c0: 5c61 b63e 2261 cfbe 6858 833e 416f 053f
000003d0: 19ac a43e 32f8 cbbe cbfd 343e 56ed 4cbf
000003e0: 9050 0cbe 4c98 a3bf 669b d53d de53 cf3e
000003f0: fea0 423f 2382 363e ccef 1f3f 8b0a afbe

W_xi.bias f4 [128]
-0.21086837 -0.5718622 -0.6967309 -0.09735315 -0.8238888 0.00828045 -0.03267645 0.38194895
-0.35617262 -0.23562491 -1.20939 -0.5456675 -0.30941582 -0.3262783 -0.07554078 -0.46923894
-0.33605468 -0.17815395 -0.1494357 -0.8646324 -0.5733312 -0.54623795 -0.09607518 -1.4276873
-0.7105421 -0.36610025 -0.07634834 -0.8746164 -0.61646295 -0.94983435 -0.20588134 -0.7540491
-0.43463385 -0.6977948 -0.15918036 -1.0757065 -0.8569655 -0.67397153 -0.016666614 -0.4520585
-0.1348969 -0.6354845 -0.49551287 -0.48741424 -0.71154445 0.081398256 -0.54085755 -0.61348945
-0.0064076725 0.074285336 0.18462099 -0.83047587 -0.21017553 -0.95397794 -0.14074478 -0.73574585
-0.94053227 -0.8272859 -0.8092794 -0.8539107 -0.40388125 -0.6101386 -0.6526351 -0.4170143
-0.34292167 -0.5886022 0.5091307 -0.116859466 -0.51682884 -1.2150626 -0.34233308 -0.6960937
-0.7806555 -0.5731578 -0.19452403 -0.4720272 -0.28649774 -0.6416759 0.0386859 -0.28378588
0.14575516 -0.6851817 -0.18754047 -0.13248137 -0.35791996 -0.39498907 -0.09768188 0.13702837
-1.0255328 -0.7525213 -0.6948003 -0.84781396 0.38452822 -0.35536563 -0.36706242 0.034733735
-1.1671543 -0.2511491 -0.196608 -0.3858539 -0.72509557 -0.38537455 -0.011160954 -0.2202911
-0.52004826 0.24016495 -0.8397287 -0.7453743 -0.14540577 -0.108142115 -0.39698714 -0.8714818
-0.70492625 -0.6748745 -0.18836163 0.17676371 -0.27342838 -0.6574359 -0.62920696 -0.6183458
0.07779243 0.29012316 -0.8323881 -0.1713088 0.3765964 -0.67906404 -1.1367098 -1.0715206
00000000: e1ed 57be 9065 12bf f55c 32bf 1761 c7bd
00000010: 60ea 52bf b9aa 073c bed7 05bd d08e c33e
00000020: 425c b6be a847 71be 4bcd 9abf deb0 0bbf
00000030: c06b 9ebe f30d a7be 20b5 9abd 1640 f0be
00000040: 5c0f acbe fd6d 36be ac05 19be 8d58 5dbf
00000050: d5c5 12bf 40d6 0bbf 10c3 c4bd 75be b6bf
00000060: 16e6 35bf 7e71 bbbe 855c 9cbd dce6 5fbf
00000070: 84d0 1dbf 5828 73bf 8fd2 52be 5d09 41bf
00000080: 5488 debe aea2 32bf 2d00 23be c0b0 89bf
00000090: 1762 5bbf 6689 2cbf 6c88 88bc 3674 e7be
000000a0: 6a22 0abe 1daf 22bf ddb3 fdbe 5c8e f9be
000000b0: c727 36bf 21b4 a63d a475 0abf a50d 1dbf
000000c0: 74f7 d1bb e922 983d 490d 3d3e 119a 54bf
000000d0: 4138 57be e637 74bf 661f 10be d759 3cbf
000000e0: b9c6 70bf 02c9 53bf ef2c 4fbf e499 5abf
000000f0: 86c9 cebe 0b32 1cbf 1813 27bf e682 d5be
00000100: 6e93 afbe a2ae 16bf 6456 023f 0454 efbd
00000110: e54e 04bf 2c87 9bbf 4846 afbe 3233 32bf
00000120: 0ad9 47bf 78ba 12bf 4f31 47be 8dad f1be
00000130: d5af 92be df44 24bf 1b75 1e3d 624c 91be
00000140: d740 153e 1168 2fbf 9c0a 40be 32a9 07be
00000150: 4941 b7be 023c cabe 700d c8bd 2a51 0c3e
00000160: a944 83bf 3ca5 40bf 6fde 31bf 560a 59bf
00000170: e2e0 c43e 7cf2 b5be 9bef bbbe f644 0e3d
00000180: 5065 95bf 9d96 80be 9c53 49be a48e c5be
00000190: dd9f 39bf d04f c5be 6fdc 36bc fd93 61be
000001a0: e221 05bf cded 753e 76f8 56bf dad0 3ebf
000001b0: 40e5 14be 9d79 ddbd e641 cbbe 6e19 5fbf
000001c0: 0c76 34bf 93c4 2cbf dfe1 40be 8c01 353e
000001d0: cefe 8bbe b84d 28bf b513 21bf e94b 1ebf
000001e0: a351 9f3d 068b 943e 6317 55bf 936b 2fbe
000001f0: 3ed1 c03e 24d7 2dbf b57f 91bf 9627 89bf

W_hi.weight f4 [128, 128]
-0.47760165 -0.06520232 0.2405316 -0.46808687 -0.30677187 -0.015082665 0.6114189 0.55672055
-0.382688 0.42548445 -0.5277013 0.060735386 0.1701082 -0.20108773 0.21360129 -0.85827345
-0.85227835 -0.30530182 0.014982168 0.17590696 -0.096503034 -0.43516892 0.5330021 -0.20789589
0.82106566 0.4358804 0.20554814 -0.019192442 0.4376106 -0.5866822 -0.56126845 -0.37626398
0.32897592 -0.2812598 -0.2138853 0.014019159 0.2854682 -0.1841053 0.016394097 0.5314512
-0.6037955 0.8519325 -0.029260816 -0.06215195 -0.19646224 0.56386226 0.4283148 0.4524083
0.28898475 0.09227164 -0.24139766 0.045144808 0.6285037 -0.4788158 0.6146997 0.36826542
0.49663556 -0.13737075 -0.55457324 -0.34473708 -1.0463089 -0.07315828 -0.10808489 -0.5703076
0.30241278 0.49921334 0.06410636 0.09695083 -0.0033692636 -0.4090768 0.182361 -0.51611525
0.36222267 0.23485978 -0.6963323 0.091262974 0.25688678 -0.0008556533 0.58953947 -0.11587203
0.9807564 -0.1513341 -0.22710226 -0.1851679 -0.021594273 -0.7288625 0.11332109 -0.2030431
-0.026801411 -0.7955062 -0.35200933 0.27606326 -0.043272164 0.34673777 -0.055725913 -0.21921621
0.25023794 0.29866716 -0.111058556 0.23994143 -0.63979393 -0.11734933 0.39274672 0.5390644
-1.2046607 -0.104955524 0.16195579 -0.009808894 0.9801036 0.19180878 0.109412774 -0.41872066
-0.5138183 -1.0216378 -0.7193197 -0.014230539 -0.14344706 -0.23774248 0.7616737 -0.4257909
-0.54394895 0.695248 0.55789673 -1.4430642 1.0852817 -0.052285373 0.55255973 -0.46167916
-0.4487764 -0.19704562 -0.8855129 -0.115183435 0.5862105 0.3953918 -0.013645739 -0.82629734
0.49878734 0.5734341 0.44365138 0.58579785 -0.5525197 0.88110834 -0.036461014 0.0047050407
-0.43915132 0.5025407 -0.11806496 -0.4476974 -0.5695454 -0.364451 -0.115900524 0.14919479
-0.13286862 0.05902922 -0.5056343 0.13388902 0.17922366 -0.44355777 -0.8370742 -1.2316105
0.044262346 -0.52732736 -0.554836 0.6424056 -0.61896646 -0.3694283 0.30754566 0.5202178
0.26468956 0.35802093 -0.114070386 0.063676395 0.0873205 -0.31030616 -0.122580044 0.6160911
0.33571154 0.57514966 -0.5055261 -0.044361874 0.5941637 -1.0422869 0.05902579 -0.06282582
0.6044613 -0.6846386 -0.25725424 0.2943003 0.58103675 0.7719137 -0.91683024 -0.289067
0.2803636 -0.18983896 0.13138454 0.5041421 0.16042237 0.38238528 0.545909 -0.5599481
-1.1915957 0.3419682 0.03290611 0.7303291 0.41392052 -0.87651694 0.15794146 -0.20797235
0.33139798 0.15328242 0.7575047 0.17933331 -0.30183983 -0.27836666 0.24715163 0.059114765
0.69031125 -0.051249295 -0.35266513 0.74593097 -0.17839438 0.016211765 -0.21633403 -0.8081953
-0.05132519 -0.507825 -0.11525103 0.34386036 -0.47654468 -0.2269888 0.6443285 0.49392027
0.011295917 0.8116049 1.078004 -0.474352 1.2947028 0.04666078 -0.15561815 -0.9012805
-0.49740046 -0.014227922 -0.23024546 -0.5046389 0.00029976573 -0.51249045 -0.17143242 -0.29283327
-0.1927615 -0.4483092 0.109204106 0.65305525 -0.49236745 0.9711719 -0.24526696 0.8185104
00000000: 3488 f4be cb88 85bd ea4d 763e 15a9 efbe
00000010: 3411 9dbe 481d 77bc f385 1c3f 3d85 0e3f
00000020: aeef c3be 19d9 d93e 6f17 07bf abc5 783d
00000030: d830 2e3e f1e9 4dbe 4cba 5a3e cfb7 5bbf
00000040: ea2e 5abf 8550 9cbe c477 753c f420 343e
00000050: 62a3 c5bd 76ce debe d372 083f a9e2 54be
00000060: 5c31 523f b72b df3e 367b 523e 7839 9dbc
00000070: 7f0e e03e ce30 16bf 4aaf 0fbf aca5 c0be
00000080: 886f a83e 4901 90be c004 5bbe 9db0 653c
00000090: e328 923e 1a86 3cbe ea4c 863c 300d 083f
000000a0: 5892 1abf 4018 5a3f 61b4 efbc 0b93 7ebd
000000b0: 662d 49be 4759 103f 144c db3e 10a2 e73e
000000c0: cff5 933e eaf8 bc3d f330 77be c3e9 383d
000000d0: 9ee5 203f 5827 f5be f65c 1d3f 498d bc3e
000000e0: 0447 fe3e ebaa 0cbe 83f8 0dbf 6181 b0be
000000f0: 73ed 85bf 02d4 95bd 9c5b ddbd aeff 11bf
00000100: d9d5 9a3e e498 ff3e 324a 833d 288e c63d
00000110: ddce 5cbb 8472 d1be d8bc 3a3e 2120 04bf
00000120: 4075 b93e 157f 703e d542 32bf 15e8 ba3d
00000130: aa86 833e ec4d 60ba 0fec 163f 514e edbd
00000140: da12 7b3f 54f7 1abe 7f8d 68be a79c 3dbe
00000150: 79e6 b0bc bc96 3abf e314 e83d 88ea 4fbe
00000160: a28e dbbc 4ba6 4bbf 913a b4be 2a58 8d3e
00000170: 273e 31bd 9d87 b13e db40 64bd 377a 60be
00000180: 301f 803e e7ea 983e ab72 e3bd 35b3 753e
00000190: 89c9 23bf d854 f0bd 1916 c93e 2000 0a3f
000001a0: 5232 9abf ecf2 d6bd bdd7 253e 7cb5 20bc
000001b0: 12e8 7a3f 8569 443e ce13 e03d 8e62 d6be
000001c0: 9989 03bf 07c5 82bf 5625 38bf 3527 69bc
000001d0: c9e3 12be c472 73be 0cfd 423f 4401 dabe
000001e0: 3d40 0bbf c6fb 313f 52d2 0e3f 54b6 b8bf
000001f0: 83ea 8a3f 3029 56bd 8e74 0d3f 3661 ecbe
00000200: 05c6 e5be 54c6 49be f9b0 62bf 4be5 ebbd
00000210: e411 163f cb70 ca3e 6192 5fbc 3988 53bf
00000220: 0e61 ff3e 94cc 123f 4626 e33e d9f6 153f
00000230: ee71 0dbf 5190 613f 2558 15bd be2c 9a3b
00000240: 71d8 e0be 82a6 003f 0bcc f1bd 9838 e5be
00000250: bacd 11bf 5299 babe 415d edbd 85c6 183e
00000260: b60e 08be a0c8 713d 4071 01bf 341a 093e
00000270: 6886 373e 011a e3be 7f4a 56bf 6aa5 9dbf
00000280: 6f4c 353d edfe 06bf bb09 0ebf b274 243f
00000290: 9674 1ebf b525 bdbe a076 9d3e fe2c 053f
000002a0: 6485 873e 854e b73e bc9d e9bd c568 823d
000002b0: 17d5 b23d 73e0 9ebe 3f0b fbbd 25b8 1d3f
000002c0: 62e2 ab3e 023d 133f 296a 01bf ccb4 35bd
000002d0: 1d1b 183f a869 85bf 07c5 713d d3aa 80bd
000002e0: fabd 1a3f 7a44 2fbf d4b6 83be 87ae 963e
000002f0: d3be 143f 239c 453f 63b5 6abf 9700 94be
00000300: d18b 8f3e 2565 42be ab89 063e 750f 013f
00000310: c345 243e 01c8 c33e b1c0 0b3f c258 0fbf
00000320: 3586 98bf 7516 af3e 8fc8 063d d9f6 3a3f
00000330: 64ed d33e 6a63 60bf 68bb 213e b4f6 54be
00000340: ffac a93e 11f6 1c3e d4eb 413f 27a3 373e
00000350: c08a 9abe 1386 8ebe 5115 7d3e 5322 723d
00000360: 3db8 303f c8ea 51bd 8690 b4be 55f5 3e3f
00000370: 04ad 36be 89ce 843c ab86 5dbe e3e5 4ebf
00000380: 5d3a 52bd d200 02bf bb08 ecbd 770e b03e
00000390: aafd f3be c16f 68be b6f2 243f 1ee3 fc3e
000003a0: 8312 393c 57c5 4f3f 09fc 893f 44de f2be
000003b0: d2b8 a53f 601f 3f3d 5d5a 1fbe 52ba 66bf
000003c0: 46ab febe 3b1c 69bc 77c5 6bbe 0430 01bf
000003d0: e029 9d39 9332 03bf fb8b 2fbe 3eee 95be
000003e0: 4563 45be c988 e5be 67a6 df3d a12e 273f
000003f0: 9617 fcbe b99e 783f 4327 7bbe e689 513f

W_hi.bias f4 [128]
-0.1429775 -0.55586135 -0.54321104 -0.0806186 -0.977451 0.020878596 -0.0117130615 0.32399416
-0.3843956 -0.38310704 -1.2066864 -0.586222 -0.41299033 -0.34437934 -0.18224898 -0.51343495
-0.232045 -0.19189861 -0.15344241 -0.7087353 -0.5474768 -0.48245555 0.01366986 -1.4391173
-0.63082516 -0.35279518 -0.07304918 -1.0003322 -0.5899987 -0.9296041 -0.07874173 -0.72100395
-0.30484572 -0.774433 -0.13274486 -1.1100335 -0.67827886 -0.68860614 -0.062601104 -0.4149298
-0.269407 -0.7156511 -0.6125571 -0.5160841 -0.7995638 0.089078955 -0.7247714 -0.6372641
-0.16631003 0.20407957 0.24697162 -0.85811037 -0.21931733 -0.954818 -0.12844753 -0.86440724
-1.0394018 -0.7076582 -0.769944 -0.83771586 -0.39575112 -0.54937476 -0.7288666 -0.4471029
-0.31666207 -0.7037457 0.3926724 -0.118587114 -0.6540641 -1.1949902 -0.28947198 -0.7428919
-0.6983967 -0.6453861 -0.109072626 -0.45180872 -0.46323934 -0.61617523 0.012931952 -0.25352326
0.03257931 -0.86867565 -0.078466274 -0.19022258 -0.327424 -0.40760857 -0.09334527 -0.038996194
-1.1204135 -0.67202437 -0.64559406 -0.81234527 0.38079858 -0.38886663 -0.41319546 0.049140714
-1.1020749 -0.12974584 -0.22650121 -0.37703782 -0.65398103 -0.406776 0.116062894 -0.19975187
-0.6246191 0.39696273 -0.8129629 -0.7673571 -0.27219284 -0.19951285 -0.4957559 -0.750263
-0.74917996 -0.6419082 -0.3027696 0.084019154 -0.38892257 -0.6773032 -0.52087706 -0.60916656
0.046655852 0.22843954 -0.8905273 -0.055927046 0.23469171 -0.7655314 -1.0909263 -1.0195335
00000000: b268 12be ee4c 0ebf e10f 0bbf 5d1b a5bd
00000010: 3b3a 7abf 9709 ab3c 24e8 3fbc 90e2 a53e
00000020: 80cf c4be 9b26 c4be b374 9abf a512 16bf
00000030: 7873 d3be 7d52 b0be 7a9f 3abe 7970 03bf
00000040: 349d 6dbe 1281 44be 0220 1dbe ad6f 35bf
00000050: 7127 0cbf 6a04 f7be 8cf7 5f3c ff34 b8bf
00000060: c27d 21bf 92a1 b4be cf9a 95bd e30a 80bf
00000070: 280a 17bf 89fa 6dbf 5843 a1bd b793 38bf
00000080: bd14 9cbe 3e41 46bf 45ee 07be 9415 8ebf
00000090: afa3 2dbf 7e48 30bf 0235 80bd ae71 d4be
000000a0: b7ef 89be e934 37bf 8bd0 1cbf 161e 04bf
000000b0: 37b0 4cbf 076f b63d 9e8a 39bf bd23 23bf
000000c0: 2d4d 2abe 3cfa 503e 21e6 7c3e 1fad 5bbf
000000d0: b994 60be f46e 74bf c087 03be cb49 5dbf
000000e0: 1e0b 85bf 1629 35bf 0d1b 45bf 8c74 56bf
000000f0: e49f cabe d3a3 0cbf 0097 3abf acea e4be
00000100: 8821 a2be ae28 34bf 5b0c c93e cddd f2bd
00000110: bf70 27bf 70f5 98bf ac35 94be 2a2e 3ebf
00000120: 20ca 32bf 0638 25bf 7861 dfbd 7953 e7be
00000130: b52d edbe a9bd 1dbf 8ae0 533c cdcd 81be
00000140: e271 053d 8761 5ebf edb2 a0bd b5c9 42be
00000150: 1ea4 a7be 12b2 d0be ce2b bfbd 79ba 1fbd
00000160: b669 8fbf ca09 2cbf a745 25bf dcf5 4fbf
00000170: 08f8 c23e 8719 c7be 5b8e d3be c647 493d
00000180: ca10 8dbf 18dc 04be efef 67be 1a0b c1be
00000190: 4d6b 27bf f244 d0be 62b2 ed3d c18b 4cbe
000001a0: 0ae7 1fbf b33e cb3e 561e 50bf 8471 44bf
000001b0: dc5c 8bbe 194d 4cbe b8d3 fdbe 3c11 40bf
000001c0: 42ca 3fbf 1954 24bf 9e04 9bbe 3c12 ac3d
000001d0: dc20 c7be be63 2dbf 3358 05bf 57f2 1bbf
000001e0: 351a 3f3d 0eec 693e 99f9 63bf c213 65bd
000001f0: 0653 703e def9 43bf 79a3 8bbf 1380 82bf

W_xf.weight f4 [128, 100]
-0.03825751 0.1960363 -0.19812217 -1.0208449 1.0417256 -0.100521654 -0.77116096 0.29351047
0.17115696 0.07989107 -0.9282129 0.3352653 0.07684155 -0.5085995 0.036950007 -0.7560987
-0.87402105 -0.3562799 0.07820193 0.15895726 -0.77470034 -0.05237106 0.24215336 -0.10875863
-0.2951214 0.2227045 0.283746 0.16486263 0.094027385 -0.8336731 0.91142344 -0.5210854
0.5923805 0.08699122 0.15954322 -0.10190709 0.061590653 0.15675409 0.028821561 -0.34572712
0.47549587 -0.56769425 -0.14478377 0.33081532 -0.41251975 -0.47002766 0.27633423 0.3571336
-0.1378077 -0.2602621 0.359795 -0.6590424 -0.1792588 0.5189692 -0.09591491 0.19373086
-0.07101997 -0.04631553 -0.061258107 -0.075219005 -0.49340817 -0.3426947 -0.665621 -0.607731
-0.1889453 0.22254123 0.09943741 0.40518367 -0.277258 0.0016136954 -0.54293907 0.15141714
0.3936902 0.35221973 -0.29977944 -0.21380973 -0.07512086 0.62568486 0.44863144 -0.46317345
0.029477537 0.07967136 -1.0209042 -0.17912985 0.63154334 0.457421 0.49562612 0.9221482
0.109845124 -1.0724092 -0.19722053 -0.16945967 -0.013759496 0.31647047 0.35709321 0.089334875
-0.6638843 0.030915858 -0.8589753 -0.018845301 0.10609373 -0.00020086268 -0.83478713 0.39216045
0.011178554 0.14814562 0.19922568 -0.40568414 -0.74360543 -0.5300432 -0.5732394 -0.14137964
-0.7710693 -0.551084 -0.52449304 -0.012293411 -0.3652342 0.15267125 0.03826827 -0.055805616
0.38086644 -0.9393943 0.78851974 0.21950373 0.3703587 0.4155607 0.44155824 -0.30271673
-0.24905618 0.5599077 -0.59141314 -0.4163575 0.71532273 0.52827996 1.0777415 -0.96785235
0.009643174 0.71824414 0.3746606 1.0434829 0.75109744 -0.039584532 -0.29077867 -0.043406058
0.023031045 -0.3654515 -0.58799094 0.2955073 -0.53298336 0.21132825 -0.75498945 0.52863693
0.017097615 0.5347558 -0.37489468 -0.59577084 -0.99431574 -0.14086476 0.10019231 -0.17059664
0.0776064 0.657239 0.13008519 -0.37654087 0.5942825 0.38795695 0.019796584 -0.25715563
0.055571213 -0.20176642 -0.9512815 0.23169877 -0.9161053 -0.5037475 0.6505888 -0.5929266
0.09128049 0.4193003 0.18635726 -0.34395105 -0.79431874 0.17856063 -0.012889214 0.17453927
0.08640598 -1.1372432 0.6430661 -0.8266716 0.5060705 0.5457702 -0.08913314 0.7143342
-0.20271419 -0.04748357 0.23838021 -0.55746263 -0.36669832 -0.23925525 -0.61446136 0.22375482
0.19000843 -0.53624344 -0.034837373 -0.2414626 -0.12940799 0.22741382 -0.07242523 -0.40541512
-0.67266184 0.2470383 -0.075473234 0.19520052 0.42761153 -0.23078103 -0.5751229 -0.82785994
0.24309434 0.81971097 -0.48847735 -0.15372114 0.07249902 0.209155 0.12547277 0.5223585
0.2761262 -0.5722603 -0.62188655 0.39418212 -0.17380878 -0.37019843 -0.2132521 -0.61272067
0.22836715 0.24223769 0.8514497 -0.6225641 0.9215256 0.07780805 0.21819553 -0.47747853
0.88834023 -0.023003612 0.38615417 -0.01442261 -1.5965104 -0.014780572 0.3181394 0.54745805
0.261937 -0.23877025 -0.38417557 -0.42810348 -0.23799181 -0.3129769 -0.30200922 0.30655345
00000000: e8b3 1cbd bdbd 483e 8ae0 4abe 0cab 82bf
00000010: 4457 853f 4cde cdbd ce6a 45bf 0147 963e
00000020: c543 2f3e ee9d a33d 5c9f 6dbf e5a7 ab3e
00000030: 1a5f 9d3d 9433 02bf e458 173d af8f 41bf
00000040: d8bf 5fbf 526a b6be 5528 a03d b1c5 223e
00000050: c352 46bf 0983 56bd 0df7 773e d8bc debd
00000060: 271a 97be a60c 643e 2847 913e c0d1 283e
00000070: 6e91 c03d 9a6b 55bf 0c53 693f da65 05bf
00000080: 40a6 173f 7428 b23d 4c5f 233e aab4 d0bd
00000090: 7b46 7c3d 2584 203e 321b ec3c 2503 b1be
000000a0: 3274 f33e 6954 11bf 3242 14be a060 a93e
000000b0: ca35 d3be 77a7 f0be ae7b 8d3e 37da b63e
000000c0: 761d 0dbe 1341 85be 0d37 b83e 01b7 28bf
000000d0: 9e8f 37be 2adb 043f 096f c4bd 6261 463e
000000e0: eb72 91bd 5ab5 3dbd c8e9 7abd 6c0c 9abd
000000f0: ff9f fcbe ae75 afbe 2366 2abf 4294 1bbf
00000100: e07a 41be d9e1 633e d7a5 cb3d 3c74 cf3e
00000110: c3f4 8dbe a282 d33a 0efe 0abf 180d 1b3e
00000120: c391 c93e 2556 b43e b17c 99be f0f0 5abe
00000130: f7d8 99bd e22c 203f 05b3 e53e 1225 edbe
00000140: e07a f13c bd2a a33d fdac 82bf d16d 37be
00000150: d3ac 213f 1633 ea3e b5c2 fd3e e811 6c3f
00000160: 7bf6 e03d b444 89bf 2ef4 49be d686 2dbe
00000170: 826f 61bc 6b08 a23e ecd4 b63e 34f5 b63d
00000180: 52f4 29bf 4143 fd3c cee5 5bbf 7661 9abc
00000190: ab47 d93d aa9e 52b9 9cb4 55bf 41c9 c83e
000001a0: 4126 373c 7cb3 173e d101 4c3e d5b5 cfbe
000001b0: ed5c 3ebf e9b0 07bf d1bf 12bf d3c5 10be
000001c0: cc64 45bf d713 0dbf 2d45 06bf 4e6a 49bc
000001d0: faff babe da55 1c3e 31bf 1c3d 6e94 64bd
000001e0: ed00 c33e 257c 70bf 6edc 493f 96c5 603e
000001f0: a89f bd3e 5fc4 d43e ec13 e23e b0fd 9abe
00000200: 9508 7fbe 1c56 0f3f da66 17bf cf2c d5be
00000210: 641f 373f 5b3d 073f 6ff3 893f 2cc5 77bf
00000220: 67fe 1d3c d9de 373f 84d3 bf3e d990 853f
00000230: ec47 403f 6423 22bd f1e0 94be 8dca 31bd
00000240: 9aab bc3c 761c bbbe 9386 16bf bc4c 973e
00000250: 9971 08bf 6f66 583e fd46 41bf c054 073f
00000260: 4c10 8c3c c2e5 083f 32f2 bfbe 7084 18bf
00000270: 7a8b 7ebf da3e 10be a031 cd3d e3b0 2ebe
00000280: 1bf0 9e3d d140 283f 0d35 053e f7c9 c0be
00000290: e622 183f 4ba2 c63e 722c a23c e7a9 83be
000002a0: a49e 633d db9b 4ebe 2f87 73bf 7142 6d3e
000002b0: e085 6abf 99f5 00bf fd8c 263f 0aca 17bf
000002c0: 44f1 ba3d 87ae d63e 70d4 3e3e 5a1a b0be
000002d0: 7958 4bbf 99d8 363e 482d 53bc 6cba 323e
000002e0: 9ef5 b03d 2f91 91bf fb9f 243f c0a0 53bf
000002f0: d68d 013f 99b7 0b3f 708b b6bd 9bde 363f
00000300: 4f94 4fbe 227e 42bd f119 743e dfb5 0ebf
00000310: e2bf bbbe 54ff 74be 574d 1dbf fc1f 653e
00000320: 9291 423e 4047 09bf a2b1 0ebd f941 77be
00000330: 8783 04be 2bdf 683e ae53 94bd 9292 cfbe
00000340: 9133 2cbf 9cf7 7c3e b691 9abd a5e2 473e
00000350: e6ef da3e dd51 6cbe 413b 13bf a1ee 53bf
00000360: b9ed 783e 94d8 513f b419 fabe 1369 1dbe
00000370: 5e7a 943d ba2c 563e ef7b 003e 49b9 053f
00000380: 6a60 8d3e a77f 12bf f533 1fbf 3dd2 c93e
00000390: eefa 31be a68a bdbe c25e 5abe 43db 1cbf
000003a0: 14d9 693e 280d 783e 9cf8 593f 5c60 1fbf
000003b0: 1ae9 6b3f d459 9f3d a66e 5f3e 1178 f4be
000003c0: 446a 633f 1272 bcbc 00b6 c53e d04c 6cbc
000003d0: 745a ccbf 362a 72bc 2be3 a23e 3626 0c3f
000003e0: 9b1c 863e 3080 74be a9b2 c4be 6130 dbbe
000003f0: 20b4 73be 823e a0be f4a0 9abe 93f4 9c3e

W_xf.bias f4 [128]
-0.102141924 0.0142417 -0.9002705 -0.3481312 -0.24131355 0.0947631 -0.04184696 0.76819104
-0.42737216 0.77527076 0.4674477 -0.40292054 0.13512401 -0.06919653 -0.9273161 0.37681836
-0.054031428 -0.078502856 0.1502139 -0.49578908 -0.1900125 -0.57604164 -0.30255947 -0.21146953
-0.28015754 -0.29755855 0.4409035 -0.67069936 -0.26203302 -0.5321058 0.40139234 0.759661
-0.015196094 -0.32441834 -0.16860637 -0.050810706 -0.20144285 -0.55823755 -0.48827586 -0.39904004
0.30899554 -0.43070084 0.36757877 -0.16347699 -0.25228018 -0.70403874 0.5805626 -0.2035042
0.21850753 -0.33175054 -0.42905802 -0.5929055 0.56237805 -0.5847305 -0.19912446 -0.24574542
0.8906864 -0.49241555 0.39637944 -0.41872126 -0.1923262 -0.066839576 0.8176105 -0.17518364
-0.7396579 -0.23439433 0.040397573 -0.9017868 -0.68351877 0.26922494 -0.27316964 0.015699286
0.5472098 -0.5472662 0.13930583 -0.74869883 0.00015216932 -0.12644428 -0.27418816 -0.25849253
0.17614122 -1.0800253 -0.11867498 -0.41188493 -0.19652613 -0.3387429 0.09961546 0.2964002
0.17557193 -0.19716054 -0.42979366 1.0095881 0.7254844 0.3945165 0.34428322 0.015103492
0.24648377 0.017438354 -0.018544286 -0.001402122 -0.33275428 -0.2762924 0.16005825 0.38990325
-0.22458625 -0.43277454 0.26138058 -0.17655723 -1.146392 0.19154733 -0.19582771 -0.7327341
0.65252715 -0.49655774 -0.48091462 -0.45608744 -0.29438147 -0.27789629 -0.07213075 -0.389921
0.44431156 0.3034568 -0.21651559 -0.22467166 0.81205994 -0.21654038 -0.041851252 -0.013249118
00000000: c92f d1bd 0556 693c 2178 66bf 413e b2be
00000010: e61a 77be 2813 c23d b867 2bbd 2ba8 443f
00000020: 86d0 dabe 2578 463f 4e55 ef3e 9a4b cebe
00000030: f35d 0a3e e9b6 8dbd 9764 6dbf 56ee c03e
00000040: 0f50 5dbd 1bc6 a0bd acd1 193e 11d8 fdbe
00000050: a392 42be 7777 13bf 13e9 9abe 788b 58be
00000060: cf70 8fbe 9859 98be 1bbe e13e f4b2 2bbf
00000070: 3129 86be 1638 08bf 4c83 cd3e 2579 423f
00000080: 0af9 78bc 291a a6be 26a7 2cbe e31e 50bd
00000090: 0947 4ebe a8e8 0ebf 4bff f9be fa4e ccbe
000000a0: aa34 9e3e d284 dcbe 4933 bc3e 8366 27be
000000b0: de2a 81be e23b 34bf c09f 143f 6863 50be
000000c0: 70c0 5f3e 35db a9be 7ead dbbe a8c8 17bf
000000d0: 02f8 0f3f e6b0 15bf 48e7 4bbe b0a4 7bbe
000000e0: 0604 643f e41d fcbe 3ff2 ca3e a262 d6be
000000f0: 29f1 44be 30e3 88bd ec4e 513f 5763 33be
00000100: 385a 3dbf 1105 70be ed77 253d 80db 66bf
00000110: 16fb 2ebf dad7 893e e4dc 8bbe ca9b 803c
00000120: f115 0c3f a319 0cbf 30a6 0e3e baaa 3fbf
00000130: a48f 1f39 9c7a 01be 6462 8cbe 2259 84be
00000140: 5d5e 343e 453e 8abf de0b f3bd 95e2 d2be
00000150: 253e 49be b66f adbe 3103 cc3d c4c1 973e
00000160: 21c9 333e 74e4 49be ea0d dcbe 2f3a 813f
00000170: 58b9 393f 11fe c93e e445 b03e a374 773c
00000180: 3e66 7c3e e1da 8e3c 30ea 97bc 68c7 b7ba
00000190: c55e aabe 3376 8dbe 4fe6 233e 66a1 c73e
000001a0: f0f9 65be a094 ddbe add3 853e 6bcb 34be
000001b0: f9bc 92bf fc24 443e 0f87 48be 7694 3bbf
000001c0: 050c 273f d13c febe 713a f6be 4b84 e9be
000001d0: 2bb9 96be 6c48 8ebe 49b9 93bd baa3 c7be
000001e0: ce7c e33e b15e 9b3e 43b6 5dbe 5410 66be
000001f0: 29e3 4f3f c3bc 5dbe 386c 2bbd d412 59bc

W_hf.weight f4 [128, 128]
-0.48878145 -0.72927105 -0.4640481 -0.057185482 0.21612394 -0.044845566 0.601428 0.086391546
-0.016412059 -0.04198546 -0.44995603 0.63136655 -0.46306092 0.23694512 0.5426413 -0.6754687
0.10906547 -0.21474597 0.68025935 -0.23899479 -0.3879618 -0.9845119 -0.22781092 -0.06505796
-1.0074179 -0.7625656 -0.4232804 0.48699018 -0.28704086 -0.46448112 0.15295964 0.12554355
0.6253447 -0.38942692 -0.11760424 0.23788138 -0.008217643 0.24546236 -0.5472813 -0.12700434
-0.4314399 0.5725076 0.3509981 0.38353974 -0.5668555 0.69246095 -0.4219215 0.07572915
-0.0434496 0.0050234324 -0.18790026 0.45470613 0.48916808 0.043911602 0.62131876 0.11288375
-0.084273435 -0.6757738 -0.15591408 -0.07028134 -0.27212137 -0.15860672 0.20429157 -0.3480905
-1.1473222 -0.4025894 0.30942145 0.46271703 0.45071852 -0.1974203 0.04935392 0.14407273
0.6079155 -0.34652382 -0.18128091 0.29965892 -0.5240496 -0.74985176 -0.103984855 0.35005745
-0.14603674 0.26040983 -0.8590556 0.3138913 -0.44007814 -0.83260304 -0.12303976 -0.19705498
-0.3776248 -0.63245714 -0.5446765 -0.7812228 -0.19852903 0.7442596 -0.32131982 -0.33956334
-0.29985875 -1.0765882 -0.3196199 0.30245116 0.08396967 -0.2909193 1.0739555 0.25326875
-0.8287947 0.05068361 -0.075322725 0.19484013 -0.17777365 0.53635496 0.25459078 0.58536726
0.22678098 -0.26090944 -0.45649147 -0.46735698 0.073152766 -0.18767895 0.38016894 0.11812423
-0.15697543 0.17060481 0.43656027 0.048617378 0.35293072 -0.18089236 -0.2639704 -0.5057639
-0.3729037 -0.01444619 0.06326148 -0.424233 -0.728443 -0.24533093 0.60885936 -0.35190907
-0.8591716 0.5324311 -0.22453816 0.57935643 0.15396841 0.98528075 0.29066983 -0.790899
0.045528468 0.49737662 0.11363529 0.27572432 -0.9701262 -0.18757331 0.38136294 0.115237765
-0.25407717 -0.7790366 -0.12702559 0.7684913 0.22545536 -0.12882063 -0.17144072 -0.8456264
0.36562818 -0.93740016 -0.27543932 -0.526595 0.10015244 -0.24157809 -0.141317 0.18005677
0.013857992 0.24064907 0.5574144 -0.042278793 -0.07994416 -0.6233557 0.083578415 1.0204391
-0.052706793 -0.4448459 -0.052124884 0.06396632 -0.25889406 0.06943178 0.29186362 0.6350569
-0.7615209 -0.4479179 0.8453783 0.0039549107 0.7201491 -0.24695809 -0.045535408 -0.5568251
0.88644695 -0.40790197 0.0020452968 0.19272135 -0.39762288 0.010984369 -0.31390256 0.61254275
0.9223983 0.29096717 0.36175102 0.1656139 -0.13987327 0.37220415 0.4792185 -0.25902915
-0.097762816 0.27252457 0.28634107 0.6485542 -0.4878933 -0.9844436 0.58126307 -0.14981368
-0.64771765 -0.6045429 -0.581855 -0.44470534 0.35605612 0.23146193 -0.3359038 -0.2829109
-0.5006826 -0.36767113 -0.6994681 0.22420134 0.29323006 -0.59547114 -0.22944814 0.4333271
0.13159709 -0.3564863 0.70158774 -0.57004267 0.42807236 0.8287397 0.040042464 -0.033648483
0.1490249 0.25590083 0.53906864 -0.62379205 -0.048677962 -0.5584558 -0.03301134 -0.22709909
0.27533862 0.53335285 0.3741277 -0.13768014 -0.49845934 -0.4959922 -0.41701284 -0.39695302
00000000: 9041 fabe 82b1 3abf b697 edbe 533b 6abd
00000010: 984f 5d3e fcaf 37bd 2ff7 193f 0dee b03d
00000020: 9572 86bc f2f8 2bbd a360 e6be 3da1 213f
00000030: 5216 edbe bea1 723e 8aea 0a3f 84eb 2cbf
00000040: b85d df3d 5ee6 5bbe 7a25 2e3f 0dbb 74be
00000050: eea2 c6be f908 7cbf 4447 69be 1c3d 85bd
00000060: 12f3 80bf 8037 43bf 35b8 d8be c756 f93e
00000070: 05f7 92be 78d0 edbe 74a1 1c3e 7d8e 003e
00000080: 9716 203f f762 c7be 7eda f0bd 2d97 733e
00000090: 4ba3 06bc 7c5a 7b3e a11a 0cbf 6d0d 02be
000000a0: b1e5 dcbe dc8f 123f 06b6 b33e 525f c43e
000000b0: 711d 11bf 1f45 313f 1806 d8be e217 9b3d
000000c0: 35f8 31bd 9b9b a43b ed68 40be 3ecf e83e
000000d0: 3d74 fa3e a7dc 333d bf0e 1f3f 982f e73d
000000e0: 8d97 acbd 83ff 2cbf f1a7 1fbe aaef 8fbd
000000f0: 7e53 8bbe cd69 22be cf31 513e eb38 b2be
00000100: 74db 92bf 3320 cebe 7d6c 9e3e 3fe9 ec3e
00000110: 94c4 e63e 8c28 4abe 5627 4a3d cd87 133e
00000120: 5aa0 1b3f 926b b1be b4a1 39be e56c 993e
00000130: 1d28 06bf 49f6 3fbf 03f6 d4bd bb3a b33e
00000140: a88a 15be 7054 853e 11eb 5bbf 5cb6 a03e
00000150: ec51 e1be 7925 55bf 45fc fbbd c8c8 49be
00000160: 0a58 c1be b6e8 21bf eb6f 0bbf 38fe 47bf
00000170: 324b 4bbe cc87 3e3f 0884 a4be 3fdb adbe
00000180: 1687 99be a4cd 89bf 38a5 a3be e1da 9a3e
00000190: 4af8 ab3d 60f3 94be 6077 893f 71ac 813e
000001a0: e42b 54bf 9e99 4f3d cd42 9abd 2c84 473e
000001b0: 4c0a 36be 8f4e 093f b959 823e a1da 153f
000001c0: 4639 683e ec95 85be 40b9 e9be 6a49 efbe
000001d0: 1ed1 953d e92e 40be 81a5 c23e 1eeb f13d
000001e0: 2bbe 20be 07b3 2e3e d484 df3e 0423 473d
000001f0: 56b3 b43e d93b 39be 2127 87be be79 01bf
00000200: 3ced bebe b6af 6cbc 3c8f 813d 1135 d9be
00000210: 3e7b 3abf 0838 7bbe 35de 1b3f 6d2d b4be
00000220: acf2 5bbf 684d 083f 55ed 65be b450 143f
00000230: e5a9 1d3e 5c3b 7c3f add2 943e 5b78 4abf
00000240: 0f7c 3a3d 26a8 fe3e 9eb9 e83d bd2b 8d3e
00000250: 315a 78bf 3813 40be 0142 c33e c701 ec3d
00000260: 6716 82be f16e 47bf ff12 02be d9bb 443f
00000270: c5dd 663e 8ee9 03be 288e 2fbe f97a 58bf
00000280: 9e33 bb3e 75f9 6fbf 6206 8dbe eece 06bf
00000290: b91c cd3d 3f60 77be 67b5 10be cd60 383e
000002a0: a20c 633c b66c 763e b6b2 0e3f 872c 2dbd
000002b0: c4b9 a3bd 3d94 1fbf 292b ab3d c09d 823f
000002c0: 14e3 57bd d8c2 e3be e780 55bd c600 833d
000002d0: c38d 84be 4032 8e3d 266f 953e 1793 223f
000002e0: 09f3 42bf 7f55 e5be b66a 583f 3298 813b
000002f0: b15b 383f 95e2 7cbe 5683 3abd 178c 0ebf
00000300: 30ee 623f 87d8 d0be 630a 063b bf58 453e
00000310: 3a95 cbbe c8f7 333c d6b7 a0be 9acf 1c3f
00000320: 4c22 6c3f a6f9 943e 6e37 b93e b196 293e
00000330: f03a 0fbe 8b91 be3e 215c f53e 789f 84be
00000340: df37 c8bd 5788 8b3e 4c9b 923e a607 263f
00000350: 27cd f9be 7f04 7cbf a8cd 143f c268 19be
00000360: d3d0 25bf 53c3 1abf 73f4 14bf 6bb0 e3be
00000370: fd4c b63e 5b04 6d3e 95fb abbe b3d9 90be
00000380: bc2c 00bf 643f bcbe 5710 33bf 0995 653e
00000390: 4022 963e cc70 18bf 74f4 6abe 0ddd dd3e
000003a0: 63c1 063e 5f85 b6be 419b 333f 51ee 11bf
000003b0: 4d2c db3e 4928 543f 9103 243d fed2 09bd
000003c0: fc99 183e 6f05 833e 6700 0a3f d6b0 1fbf
000003d0: 8b62 47bd f6f6 0ebf e636 07bd aa8c 68be
000003e0: 2ff9 8c3e d089 083f aa8d bf3e 06fc 0cbe
000003f0: 1036 ffbe b1f2 fdbe b582 d5be 6d3d cbbe

W_hf.bias f4 [128]
-0.13776457 0.17713828 -0.8586807 -0.29814175 -0.23681203 0.08758808 -0.051333807 0.6954375
-0.3784033 0.7928899 0.4897855 -0.5246697 0.095777124 -0.058422145 -0.77617055 0.48254287
-0.1190613 -0.019955559 0.13503963 -0.31639442 -0.3040097 -0.49756622 -0.20792949 -0.33617124
-0.31375986 -0.3289848 0.5842358 -0.58317876 -0.23262863 -0.669834 0.3035606 0.8919483
-0.0079122875 -0.43536443 -0.07600966 -0.09889797 -0.26123855 -0.5499129 -0.37683722 -0.46329403
0.33996996 -0.3091426 0.29327223 -0.15564187 -0.281303 -0.839041 0.5641165 -0.21090381
0.17118499 -0.35480264 -0.5215624 -0.69998926 0.6632436 -0.60731363 -0.08663023 -0.110896386
0.77758 -0.50371176 0.3024361 -0.31715834 -0.25978708 -0.05248805 0.8073697 -0.22860776
-0.8919774 -0.37367058 0.024590133 -0.91986513 -0.5968207 0.18012357 -0.19410841 0.05356681
0.6474604 -0.6274045 0.21212931 -0.77510047 0.013443232 -0.10436665 -0.23684277 -0.29316515
0.06687738 -1.0791067 -0.09749643 -0.49942285 -0.32984817 -0.34513143 0.083447926 0.3473907
0.18140133 -0.050979987 -0.41235787 1.0786023 0.6377102 0.4628338 0.2034984 0.037492793
0.22955602 0.038082656 -0.045717984 0.033694025 -0.24812625 -0.20918657 0.17409067 0.33805352
-0.23435302 -0.33306897 0.3235445 -0.1980006 -1.1585555 0.18089366 -0.07182266 -0.76765776
0.5911271 -0.54773784 -0.49230874 -0.38184074 -0.23442803 -0.32797945 -0.11681627 -0.3477323
0.5495673 0.4260482 -0.0532101 -0.24401487 0.74230796 -0.116746746 0.010346444 -0.062226575
00000000: 2812 0dbe bd63 353e 80d2 5bbf 09a6 98be
00000010: da7e 72be 6161 b33d 6643 52bd 3108 323f
00000020: 14be c1be d5fa 4a3f 2ac5 fa3e c150 06bf
00000030: cc26 c43d 0f4c 6fbd 1db3 46bf dc0f f73e
00000040: 69d6 f3bd d779 a3bc d447 0a3e 73fe a1be
00000050: 29a7 9bbe 00c1 febe 78eb 54be a31e acbe
00000060: 22a5 a0be b270 a8be 7a90 153f 344b 15bf
00000070: 3336 6ebe 3e7a 2bbf 4c6c 9b3e b956 643f
00000080: 8aa2 01bc 16e8 debe f4aa 9bbd 058b cabd
00000090: 0fc1 85be 18c7 0cbf cff0 c0be e034 edbe
000000a0: 8b10 ae3e f047 9ebe c727 963e 9560 1fbe
000000b0: f206 90be 64cb 56bf f069 103f 2bf7 57be
000000c0: 1e4b 2f3e b1a8 b5be 1d85 05bf 7f32 33bf
000000d0: 55ca 293f e878 1bbf 316b b1bd a51d e3bd
000000e0: 7c0f 473f 41f3 00bf e8d8 9a3e 9462 a2be
000000f0: d002 85be b6fd 56bd c8af 4e3f 2718 6abe
00000100: a258 64bf c051 bfbe 3f71 c93c 487c 6bbf
00000110: 3ec9 18bf 5072 383e 5bc4 46be df68 5b3d
00000120: f7bf 253f 959d 20bf 6d38 593e fc6c 46bf
00000130: 0041 5c3c 2fbe d5bd e986 72be be19 96be
00000140: 02f7 883d 2b20 8abf 35ac c7bd 5ab4 ffbe
00000150: dce1 a8be 11b5 b0be bfe6 aa3d 32dd b13e
00000160: 45c1 393e 64d0 50bd 9220 d3be a40f 8a3f
00000170: fa40 233f 8df8 ec3e e261 503e 0b92 193d
00000180: bc10 6b3e 8ffc 1b3d c842 3bbd bf02 0a3d
00000190: cf14 7ebe 0135 56be d344 323e 5a15 ad3e
000001a0: 3dfa 6fbe 0488 aabe a0a7 a53e abc0 4abe
000001b0: 8c4b 94bf 303c 393e c217 93bd 3885 44bf
000001c0: 1b54 173f 8c38 0cbf e40f fcbe a180 c3be
000001d0: e70d 70be ecec a7be 5e3d efbd f809 b2be
000001e0: 71b0 0c3f fd22 da3e d5f2 59bd 09df 79be
000001f0: e507 3e3f eb18 efbd 2284 293c 4be1 7ebd

W_xc.weight f4 [128, 100]
-0.30873847 0.098263144 -0.12465881 -0.014013612 -0.15191352 -0.540286 0.20193975 0.4643073
-0.1757655 -0.2755472 0.22684231 0.43455157 0.32083464 -0.044191524 -0.34173095 0.18619472
0.30858716 0.058030613 0.54763186 -0.08703143 -0.040269256 -0.39137986 -0.35713062 0.48258153
0.09192069 0.1592161 -0.73387325 -0.008197188 0.26052386 -0.0778407 0.06587892 -0.67822146
0.37989414 -0.3445438 0.22588657 0.34638172 -0.15407504 -0.0025906311 -0.043214444 -0.176635
0.30871522 0.8825999 -0.36300442 -1.0970428 -0.24226288 -0.36308566 -0.32421017 0.42050853
0.8538867 0.12433204 -0.11757183 -0.80821913 -0.086551435 0.038583677 -0.5519973 -0.5939836
-0.43913892 -0.19227706 0.2983127 -0.2247976 -0.17086412 0.2323017 0.49025378 0.5027284
0.3247238 0.2562297 -0.34223646 0.04001407 -0.7396034 -0.6219388 0.25909078 0.75252104
0.42936972 0.21898724 0.27792522 0.13469177 -0.04372865 0.0085795075 0.6025486 -0.17739719
-0.7132206 -0.2949662 0.25970802 -0.11737514 -0.4278386 0.018192386 -0.28456903 -0.16235088
-0.44565973 0.115681656 -0.04304483 -0.25901702 0.17633826 0.1130065 -0.029123832 0.31440106
0.115960374 0.31915945 -0.17734364 0.27013642 -0.7381803 0.16969012 -0.16182153 0.26757246
-0.45184037 0.24243742 0.18196203 0.6227912 -0.76696056 -0.21467905 -0.2953879 -0.11144984
-0.09673493 0.632613 0.52424693 -0.3355553 0.10528454 -0.4835914 0.24286063 -0.5712111
-0.06202049 1.2592909 -0.3431425 0.08654051 -0.39217928 -0.5564734 -0.36798167 0.48811427
-0.81588787 0.5382459 0.21446744 0.9208508 -0.36698946 -0.19112836 0.04167235 0.44215894
-0.5892198 -0.3204592 -0.30740002 -0.16703334 0.26036784 0.44886518 0.5190571 -0.48631674
0.28892377 0.40912792 0.7397388 -0.4007097 -0.012866718 -0.1648072 0.20046073 -0.5869957
-0.55213743 -0.0058431737 -0.76425093 -0.17753717 -0.8615738 0.62514794 0.026325008 -0.43846822
0.4886907 0.52886647 0.21782845 0.90543616 -0.49821082 -0.0017098965 -0.5540013 0.26259053
0.23873079 0.2370048 0.16503443 -0.08375111 -0.42914715 -0.55188346 1.2591145 0.5456887
-0.36305296 0.14849068 0.039227698 -0.49928936 0.37384516 -0.91452605 -0.72484374 0.16202858
-0.66756153 0.4939308 -0.12746812 -0.31232545 -0.24840331 0.09263887 -0.17914511 -0.08797124
0.14990538 0.6661316 0.5310873 0.65962106 0.27029005 -0.4473423 0.39171118 -0.6008975
0.68134326 -0.34200883 -0.46806055 0.54823625 -0.5243305 -0.35951716 -0.62833977 0.19300663
-0.70055634 -0.24643703 0.4880237 -0.09773416 -0.07078697 -0.107418 -0.6108105 0.6262046
0.66946733 0.19491416 -0.30683863 -0.54480726 0.56756157 -0.3872158 -0.3706854 0.4297157
0.9709693 -0.6680486 0.19605586 -0.0099514 0.5760609 0.44367823 0.110207796 -0.24096544
0.13443199 -0.32165742 0.66588044 -0.2598752 0.436853 0.2952164 -0.5290832 -0.005697948
1.1348016 -0.7460514 -0.06522029 -0.46997574 -0.4898475 -0.71603906 -0.5140316 -0.18793742
0.4924144 0.27203962 0.035684958 -0.15702322 -0.32214513 0.54219145 -0.15219358 -1.2246757
00000000: f812 9ebe 303e c93d 1e4d ffbd 5999 65bc
00000010: 388f 1bbe 2f50 0abf 4bc9 4e3e b0b9 ed3e
00000020: dffb 33be 8614 8dbe 5a49 683e 8b7d de3e
00000030: 7044 a43e 2c02 35bd 5cf7 aebe d4a9 3e3e
00000040: 23ff 9d3e 82b1 6d3d 9a31 0c3f 893d b2bd
00000050: 60f1 24bd f162 c8be d3d9 b6be ed14 f73e
00000060: ea40 bc3d 8c09 233e 1edf 3bbf 804d 06bc
00000070: 6263 853e f26a 9fbd 87eb 863d ec9f 2dbf
00000080: 7c81 c23e 0c68 b0be cf4e 673e f258 b13e
00000090: d9c5 1dbe 94c7 29bb a101 31bd cedf 34be
000000a0: ec0f 9e3e 11f2 613f b7db b9be e66b 8cbf
000000b0: c313 78be 5de6 b9be e0fe a5be e54c d73e
000000c0: 5298 5a3f cca1 fe3d 80c9 f0bd 73e7 4ebf
000000d0: e141 b1bd eb09 1e3d b24f 0dbf 4f0f 18bf
000000e0: d1d6 e0be 47e4 44be 71bc 983e 5831 66be
000000f0: 01f7 2ebe 7fe0 6d3e 8b02 fb3e cfb2 003f
00000100: 3342 a63e 8a30 833e 9e39 afbe cbe5 233d
00000110: a656 3dbf 6237 1fbf 8ca7 843e 38a5 403f
00000120: 59d6 db3e 313e 603e 374c 8e3e a4ec 093e
00000130: d01c 33bd 1091 0c3c a040 1a3f 9ca7 35be
00000140: a095 36bf cf05 97be 73f8 843e 6162 f0bd
00000150: a90d dbbe 3308 953c 08b3 91be 4f3f 26be
00000160: 832d e4be 81ea ec3d c74f 30bd e19d 84be
00000170: 0492 343e f46f e73d 1a95 eebc 2df9 a03e
00000180: a27c ed3d de68 a33e 9299 35be 524f 8a3e
00000190: 62f9 3cbf 3fc3 2d3e 8bb4 25be 42ff 883e
000001a0: 9f57 e7be 8441 783e 4154 3a3e 3e6f 1f3f
000001b0: 8757 44bf d3d4 5bbe 153d 97be d03f e4bd
000001c0: f71c c6bd edf2 213f 0c35 063f e7cd abbe
000001d0: 6c9f d73d 4b99 f7be 75b0 783e e43a 12bf
000001e0: 3309 7ebd 7230 a13f 60b0 afbe 273c b13d
000001f0: b9cb c8be 0a75 0ebf 1868 bcbe 1dea f93e
00000200: 07de 50bf 7cca 093f 5a9d 5b3e e1bc 6b3f
00000210: 0be6 bbbe 27b7 43be a0b0 2a3d a862 e23e
00000220: 1cd7 16bf 3a13 a4be 8963 9dbe ca0a 2bbe
00000230: ef4e 853e a8d1 e53e ede0 043f 82fe f8be
00000240: d1ed 933e 3779 d13e 865f 3d3f d229 cdbe
00000250: edce 52bc 38c3 28be 9445 4d3e 5a45 16bf
00000260: e158 0dbf 1878 bfbb f3a5 43bf 4ecc 35be
00000270: 1a90 5cbf b209 203f 8ba7 d73c e87e e0be
00000280: ab35 fa3e cb63 073f 6c0e 5f3e aaca 673f
00000290: 7d15 ffbe 9b1e e0ba 07d3 0dbf 4472 863e
000002a0: d875 743e 63b1 723e c9fe 283e b485 abbd
000002b0: 2db9 dbbe 3c48 0dbf aa2a a13f 41b2 0b3f
000002c0: 14e2 b9be f10d 183e 39ad 203d dba2 ffbe
000002d0: a268 bf3e 611e 6abf 5c8f 39bf d2ea 253e
000002e0: 50e5 2abf 7fe4 fc3e 0187 02be 1fe9 9fbe
000002f0: 705d 7ebe 73b9 bd3d d171 37be 442a b4bd
00000300: cc80 193e 9a87 2a3f 56f5 073f eddc 283f
00000310: 7563 8a3e 0d0a e5be 5e8e c83e 6bd4 19bf
00000320: 836c 2e3f c81b afbe a2a5 efbe 3659 0c3f
00000330: 863a 06bf a212 b8be e0da 20bf 88a3 453e
00000340: a957 33bf fd59 7cbe 3ede f93e d928 c8bd
00000350: c2f8 90bd f8fd dbbd 145e 1cbf f24e 203f
00000360: 3662 2b3f 9497 473e f419 9dbe 7d78 0bbf
00000370: b74b 113f 2641 c6be 7aca bdbe b203 dc3e
00000380: 7291 783f 3c05 2bbf dec2 483e 320b 23bc
00000390: ba78 133f cb29 e33e a0b4 e13d a5bf 76be
000003a0: 8aa8 093e 48b0 a4be 2477 2a3f 5d0e 85be
000003b0: 32ab df3e 9b26 973e ff71 07bf dab5 babb
000003c0: 2e41 913f 39fd 3ebf 3792 85bd a9a0 f0be
000003d0: 4bcd fabe 564e 37bf 9397 03bf ab72 40be
000003e0: be1d fc3e c748 8b3e 642a 123d b2ca 20be
000003f0: 35f0 a4be 0fcd 0a3f a2d8 1bbe 2cc2 9cbf

W_xc.bias f4 [128]
-0.5726505 -0.0060296413 0.14732295 0.20369233 0.10135496 -0.18925352 0.7015202 0.15671238
-0.44021246 0.22795022 0.12608704 0.51806945 -0.061332967 0.025605533 0.24536389 -0.35485542
-0.045492724 0.15031014 -0.63106215 -0.09873151 0.08345666 0.060761213 0.031938825 0.08110485
-0.38475823 -0.2047666 -0.28761232 0.081257135 0.04400627 -0.013594374 0.0042680595 0.21334256
0.1408249 -0.32215506 0.11027153 -0.13224062 0.371314 0.57526386 -0.2781119 0.090130165
-0.25411186 0.19226266 0.31178778 0.44314104 0.11151728 0.13200802 0.3151002 -0.040786948
-0.39237922 -0.1618922 0.038149655 0.38253096 0.3060687 -0.15285133 0.18487 0.303772
-0.05473446 0.10183546 0.017042296 -0.12037 -0.19917774 -0.029260544 0.5320063 -0.18715966
0.12631062 -0.0064911754 -0.013997524 0.021211894 -0.062014274 -0.15237235 -0.2606659 0.24917659
0.040062938 0.0478868 0.020115888 0.1094583 -0.22506855 0.40580693 -0.22920097 0.2458648
-0.3752381 0.17992614 -0.27845588 -0.38970113 0.4330805 -0.1464967 0.24455513 -0.3645214
-0.37071964 -0.1301775 -0.26025748 0.047298435 -0.18803005 0.07367312 0.2348665 0.30286315
-0.06597266 0.18068261 -0.13766783 -0.5604684 0.22533703 -0.23812981 -0.13990982 0.46595544
0.12904528 0.030990705 0.010146525 -0.14711948 0.18202388 -0.2862804 0.049203597 -0.08936768
-0.08941172 0.09010805 -0.18325716 -0.53314024 0.4457494 0.14997488 0.017191028 -0.18935528
0.06972664 0.04104 0.010640606 -0.1924972 0.29356834 0.25626197 -0.12197726 -0.03447411
00000000: 3999 12bf 4c94 c5bb d4db 163e b994 503e
00000010: 3093 cf3d adcb 41be d496 333f 3679 203e
00000020: 8763 e1be c86b 693e f61c 013e 33a0 043f
00000030: 4738 7bbd b2c2 d13c ac40 7b3e 9caf b5be
00000040: 9456 3abd e7ea 193e 4a8d 21bf bf33 cabd
00000050: 53eb aa3d c0e0 783d 49d2 023d 4d1a a63d
00000060: 08ff c4be 56ae 51be ec41 93be 246a a63d
00000070: eb3f 343d f0ba 5ebc 14db 8b3b 7976 5a3e
00000080: 6734 103e 82f1 a4be 0ad6 e13d 166a 07be
00000090: de1c be3e 7e44 133f af64 8ebe 2a96 b83d
000000a0: f31a 82be 81e0 443e a6a2 9f3e 62e3 e23e
000000b0: 2c63 e43d 1c2d 073e d054 a13e 3710 27bd
000000c0: eee5 c8be 12c7 25be d042 1c3d 19db c33e
000000d0: 09b5 9c3e 0f85 1cbe 904e 3d3e 0188 9b3e
000000e0: 3e31 60bd 1c8f d03d 499c 8b3c 8c84 f6bd
000000f0: 40f5 4bbe cfb3 efbc 9131 083f c8a6 3fbe
00000100: 9257 013e edb3 d4bb df55 65bc 91c4 ad3c
00000110: ae02 7ebd 7f07 1cbe 0076 85be 2628 7f3e
00000120: 0919 243d f324 443d 13ca a43c ac2b e03d
00000130: 5f78 66be edc5 cf3e a9b3 6abe fbc3 7b3e
00000140: 351f c0be 8f3e 383e c591 8ebe e886 c7be
00000150: babc dd3e 3b03 16be a96c 7a3e 8da2 babe
00000160: f7ce bdbe 404d 05be 7840 85be 01bc 413d
00000170: f38a 40be efe1 963d d880 703e e110 9b3e
00000180: ad1c 87bd dd04 393e ccf8 0cbe db7a 0fbf
00000190: c0be 663e 4dd8 73be 8544 0fbe b691 ee3e
000001a0: 7224 043e 38e0 fd3c 9c3d 263c 7da6 16be
000001b0: 7864 3a3e 5893 92be b689 493d 6706 b7bd
000001c0: 7e1d b7bd 928a b83d c4a7 3bbe e17b 08bf
000001d0: 4439 e43e 0493 193e 33d4 8c3c 5ae6 41be
000001e0: d7cc 8e3d 8f19 283d f055 2e3c fc1d 45be
000001f0: 974e 963e c534 833e 37cf f9bd b934 0dbd
